Mobile/quantization/app/src/main/assets/Quantization/qat_lenet_mnist.tflite (tflite, 343368 bytes, 3 tensors)

sequential/quant_dense/MatMul;sequential/quant_dense/LastValueQuant/FakeQuantWithMinMaxVars i1 [300, 1024] scale=0.004954504 zero_point=0
0.04954504 0.019818015 -0.03963603 -0.029727023 -0.059454046 0.029727023 0.03963603 0.019818015
-0.06440855 0.044590533 0.004954504 0.054499544 0.03468153 0.014863512 0.019818015 0.029727023
0.054499544 0.029727023 -0.06440855 -0.06440855 -0.059454046 0.009909008 0.06440855 0.04954504
-0.059454046 -0.06440855 -0.029727023 -0.014863512 -0.06440855 -0.04954504 -0.059454046 0.004954504
-0.014863512 0.014863512 -0.054499544 0.0 0.06440855 0.03963603 -0.06936306 -0.02477252
-0.029727023 0.04954504 -0.07431756 -0.029727023 0.019818015 -0.059454046 -0.089181066 -0.10899909
-0.054499544 -0.089181066 -0.029727023 -0.11395359 -0.059454046 0.08422656 0.004954504 -0.02477252
0.014863512 -0.029727023 -0.06936306 -0.07431756 0.059454046 -0.03963603 -0.03468153 -0.019818015
0.02477252 0.03963603 0.06440855 -0.07927206 -0.16845313 0.0 -0.014863512 0.04954504
0.004954504 0.03963603 0.14863512 0.15358962 0.09909008 0.11890809 0.04954504 0.10899909
0.07431756 -0.009909008 -0.004954504 -0.009909008 0.14368062 0.123862594 0.009909008 0.07927206
0.009909008 0.03963603 0.009909008 -0.029727023 0.004954504 -0.004954504 -0.029727023 -0.059454046
0.014863512 0.02477252 0.03468153 -0.089181066 -0.07431756 0.03963603 0.07927206 0.123862594
0.06440855 0.04954504 -0.029727023 -0.004954504 0.06936306 0.014863512 -0.004954504 0.019818015
-0.02477252 0.0 0.029727023 0.02477252 -0.04954504 0.06440855 0.02477252 0.029727023
0.15854412 0.14368062 0.1288171 0.0 -0.02477252 -0.04954504 0.094135575 0.029727023
0.03963603 -0.054499544 -0.009909008 -0.06936306 -0.11395359 0.10404458 0.21304366 0.11890809
0.16349863 0.23781618 0.07431756 0.059454046 0.004954504 -0.02477252 0.029727023 0.004954504
0.03468153 -0.044590533 -0.13872612 -0.08422656 -0.07431756 -0.123862594 0.03468153 0.06936306
0.123862594 0.044590533 0.03963603 0.059454046 -0.089181066 -0.1337716 -0.04954504 0.059454046
0.029727023 0.059454046 0.059454046 0.10404458 0.1288171 0.20313466 0.15854412 0.10899909
0.18331665 0.30717924 0.15854412 0.11395359 0.029727023 0.03963603 0.08422656 0.10899909
0.014863512 -0.11395359 -0.123862594 -0.1337716 -0.07927206 -0.03963603 -0.044590533 -0.06440855
0.07431756 -0.019818015 -0.014863512 -0.03963603 -0.054499544 -0.089181066 -0.02477252 0.16349863
0.04954504 -0.044590533 -0.06936306 0.08422656 0.1288171 0.19818015 0.16349863 0.18331665
0.16349863 0.15358962 0.054499544 0.08422656 -0.06936306 -0.014863512 0.094135575 -0.02477252
0.029727023 -0.089181066 -0.10899909 -0.059454046 -0.123862594 -0.094135575 0.02477252 -0.06936306
-0.03468153 0.029727023 0.029727023 0.02477252 -0.02477252 0.009909008 0.059454046 0.094135575
0.04954504 0.06936306 -0.094135575 -0.019818015 0.089181066 0.17340763 0.059454046 0.029727023
-0.07431756 0.03468153 0.0 -0.019818015 0.054499544 0.06936306 0.123862594 0.10899909
-0.019818015 0.009909008 -0.08422656 -0.1288171 -0.16845313 -0.13872612 -0.11395359 -0.059454046
-0.089181066 0.02477252 -0.044590533 0.029727023 -0.06440855 0.0 -0.029727023 0.004954504
00000000: 0a04 f8fa f406 0804 f309 010b 0703 0406
00000010: 0b06 f3f3 f402 0d0a f4f3 fafd f3f6 f401
00000020: fd03 f500 0d08 f2fb fa0a f1fa 04f4 eeea
00000030: f5ee fae9 f411 01fb 03fa f2f1 0cf8 f9fc
00000040: 0508 0df0 de00 fd0a 0108 1e1f 1418 0a16
00000050: 0ffe fffe 1d19 0210 0208 02fa 01ff faf4
00000060: 0305 07ee f108 1019 0d0a faff 0e03 ff04
00000070: fb00 0605 f60d 0506 201d 1a00 fbf6 1306
00000080: 08f5 fef2 e915 2b18 2130 0f0c 01fb 0601
00000090: 07f7 e4ef f1e7 070e 1909 080c eee5 f60c
000000a0: 060c 0c15 1a29 2016 253e 2017 0608 1116
000000b0: 03e9 e7e5 f0f8 f7f3 0ffc fdf8 f5ee fb21
000000c0: 0af7 f211 1a28 2125 211f 0b11 f2fd 13fb
000000d0: 06ee eaf4 e7ed 05f2 f906 0605 fb02 0c13
000000e0: 0a0e edfc 1223 0c06 f107 00fc 0b0e 1916
000000f0: fc02 efe6 dee4 e9f4 ee05 f706 f300 fa01

sequential/quant_dense_1/MatMul;sequential/quant_dense_1/LastValueQuant/FakeQuantWithMinMaxVars i1 [100, 300] scale=0.006054475 zero_point=0
0.1210895 0.14530739 0.0242179 0.11503503 0.09081712 -0.036326848 0.06054475 -0.018163424
0.06659923 -0.01210895 0.16347082 -0.042381324 -0.036326848 0.13319845 0.242179 0.042381324
-0.036326848 -0.27850586 0.13319845 -0.01210895 -0.08476265 -0.29666927 0.19979768 0.0484358
0.0 -0.2663969 0.0242179 -0.10898055 0.06659923 -0.10898055 -0.0968716 -0.06054475
0.0968716 -0.06054475 -0.07870817 -0.11503503 -0.030272376 -0.102926075 -0.054490276 0.15136187
0.102926075 0.0 0.15136187 0.13925293 0.07870817 0.19979768 0.1210895 0.13319845
0.15136187 0.18163425 -0.15741634 -0.102926075 0.11503503 0.0 -0.20585215 0.2663969
-0.10898055 -0.018163424 -0.006054475 0.006054475 -0.25428796 0.054490276 -0.1210895 0.2663969
0.21190663 0.13319845 -0.01210895 0.16347082 0.0968716 0.018163424 -0.13319845 0.11503503
0.1210895 -0.072653696 -0.018163424 0.01210895 -0.042381324 -0.09081712 0.054490276 -0.036326848
-0.006054475 0.08476265 -0.0484358 -0.23612453 0.036326848 0.15741634 0.1937432 -0.036326848
0.12714398 0.036326848 0.018163424 -0.14530739 0.0484358 0.036326848 0.0484358 -0.06659923
0.006054475 -0.036326848 -0.10898055 -0.0968716 -0.08476265 0.018163424 -0.06659923 0.09081712
-0.1695253 -0.018163424 0.10898055 0.32088718 0.14530739 0.11503503 -0.072653696 0.0484358
0.18768872 -0.09081712 0.0484358 -0.030272376 0.0484358 0.018163424 -0.08476265 0.06659923
0.042381324 0.01210895 -0.1695253 -0.15741634 0.0 0.006054475 -0.12714398 0.1210895
-0.1210895 -0.06659923 -0.036326848 0.16347082 -0.102926075 0.15741634 -0.11503503 0.27850586
0.06659923 -0.06659923 -0.10898055 0.14530739 0.01210895 0.09081712 -0.11503503 0.07870817
0.18163425 -0.1695253 0.06054475 0.11503503 0.11503503 -0.030272376 0.1695253 0.13319845
0.006054475 -0.06659923 -0.12714398 0.11503503 0.042381324 -0.018163424 0.17557977 -0.23612453
-0.072653696 -0.006054475 0.030272376 0.042381324 0.006054475 0.11503503 0.030272376 -0.15136187
-0.09081712 0.32088718 -0.07870817 0.11503503 -0.0242179 0.10898055 0.036326848 0.06659923
0.01210895 -0.11503503 -0.06659923 0.06659923 -0.102926075 -0.0968716 0.11503503 0.1210895
0.06054475 0.042381324 -0.32088718 0.06054475 -0.102926075 0.13925293 0.12714398 -0.006054475
-0.054490276 -0.036326848 0.036326848 0.17557977 0.15136187 0.13925293 0.10898055 -0.12714398
0.036326848 0.006054475 0.0968716 -0.32088718 0.12714398 -0.08476265 -0.1210895 -0.10898055
-0.06659923 0.06054475 0.072653696 -0.5085759 -0.06659923 -0.006054475 -0.018163424 -0.036326848
0.08476265 -0.20585215 -0.102926075 0.036326848 0.25428796 -0.042381324 0.006054475 -0.09081712
-0.07870817 0.0242179 0.1210895 0.13925293 -0.0968716 0.22401558 -0.072653696 -0.15136187
0.06054475 0.0242179 0.0 0.030272376 -0.14530739 0.036326848 -0.006054475 0.030272376
0.030272376 0.1695253 -0.11503503 -0.054490276 0.072653696 -0.0968716 0.13925293 0.09081712
0.06659923 -0.18163425 0.27850586 -0.0484358 0.08476265 0.072653696 -0.054490276 -0.01210895
00000000: 1418 0413 0ffa 0afd 0bfe 1bf9 fa16 2807
00000010: fad2 16fe f2cf 2108 00d4 04ee 0bee f0f6
00000020: 10f6 f3ed fbef f719 1100 1917 0d21 1416
00000030: 191e e6ef 1300 de2c eefd ff01 d609 ec2c
00000040: 2316 fe1b 1003 ea13 14f4 fd02 f9f1 09fa
00000050: ff0e f8d9 061a 20fa 1506 03e8 0806 08f5
00000060: 01fa eef0 f203 f50f e4fd 1235 1813 f408
00000070: 1ff1 08fb 0803 f20b 0702 e4e6 0001 eb14
00000080: ecf5 fa1b ef1a ed2e 0bf5 ee18 020f ed0d
00000090: 1ee4 0a13 13fb 1c16 01f5 eb13 07fd 1dd9
000000a0: f4ff 0507 0113 05e7 f135 f313 fc12 060b
000000b0: 02ed f50b eff0 1314 0a07 cb0a ef17 15ff
000000c0: f7fa 061d 1917 12eb 0601 10cb 15f2 ecee
000000d0: f50a 0cac f5ff fdfa 0ede ef06 2af9 01f1
000000e0: f304 1417 f025 f4e7 0a04 0005 e806 ff05
000000f0: 051c edf7 0cf0 170f 0be2 2ef8 0e0c f7fe

sequential/quant_dense_2/MatMul;sequential/quant_dense_2/LastValueQuant/FakeQuantWithMinMaxVars i1 [10, 100] scale=0.0056551727 zero_point=0
0.20358622 -0.22055174 -0.07351725 -0.0113103455 -0.03958621 -0.27144828 0.32234484 0.19227587
0.03958621 -0.25448278 0.27144828 -0.33931038 -0.28841382 0.0056551727 -0.39020693 0.090482764
-0.19227587 -0.090482764 0.0622069 -0.084827594 0.016965518 -0.050896555 -0.090482764 -0.1470345
-0.13006897 0.22055174 -0.016965518 0.028275864 0.15268967 -0.10179311 0.294069 0.2488276
0.050896555 -0.022620691 -0.13572414 -0.11875863 0.22620691 -0.19793105 -0.52593106 -0.30537933
-0.41848278 -0.30537933 -0.10744828 -0.09613793 -0.21489656 0.17531036 -0.09613793 -0.19227587
0.17531036 -0.18096553 -0.23751725 -0.14137931 -0.27710345 -0.07917242 0.2488276 0.07351725
0.11310346 0.20924139 -0.22055174 -0.35062072 -0.14137931 0.1244138 0.31668967 0.19793105
0.19227587 0.022620691 -0.19227587 -0.09613793 0.23186208 -0.22620691 0.30537933 0.24317242
0.0113103455 0.3110345 0.23186208 -0.50896555 0.10744828 -0.23186208 0.090482764 0.33365518
0.19227587 0.07351725 -0.36193106 -0.016965518 -0.19793105 -0.4411035 -0.4976552 0.0
-0.17531036 -0.35062072 -0.2657931 -0.42413795 -0.10744828 -0.164 -0.028275864 0.090482764
0.1470345 -0.328 0.19793105 -0.36758623 0.050896555 0.07917242 0.29972416 0.23751725
0.28275862 -0.084827594 -0.164 -0.26013795 0.11875863 -0.10744828 -0.54855174 0.30537933
-0.33931038 0.24317242 0.18096553 -0.16965519 -0.164 0.07917242 -0.2657931 -0.23186208
0.0113103455 -0.11310346 0.090482764 -0.033931036 0.16965519 0.22055174 0.03958621 -0.26013795
-0.022620691 0.07917242 -0.13572414 0.13572414 0.13572414 -0.2488276 -0.3562759 -0.27710345
0.14137931 0.1244138 -0.11310346 -0.090482764 0.5033104 -0.4411035 -0.15268967 -0.1470345
-0.37889656 -0.294069 0.0113103455 0.33365518 -0.1244138 -0.022620691 0.1244138 -0.11875863
0.27710345 0.31668967 0.34496555 -0.05655173 -0.32234484 -0.328 -0.31668967 -0.21489656
0.10179311 -0.19793105 0.09613793 -0.3562759 0.14137931 -0.28275862 -0.19793105 -0.07351725
-0.15834484 0.084827594 0.33931038 -0.23751725 -0.1244138 0.27144828 -0.22620691 0.25448278
0.028275864 0.33365518 -0.23186208 0.18096553 -0.40717244 0.016965518 0.16965519 -0.40717244
0.0056551727 0.033931036 -0.40717244 -0.13006897 0.1244138 0.3110345 0.29972416 -0.050896555
-0.2657931 -0.2657931 -0.090482764 0.0056551727 0.18096553 0.34496555 0.29972416 -0.0622069
0.028275864 -0.33365518 -0.3110345 -0.6616552 -0.34496555 -0.1470345 -0.033931036 -0.17531036
-0.23186208 0.028275864 0.06786207 -0.19793105 0.17531036 0.14137931 -0.13572414 -0.07917242
0.10179311 -0.48634484 -0.36193106 -0.24317242 -0.30537933 0.20358622 -0.09613793 -0.03958621
-0.090482764 -0.18096553 0.18096553 -0.045241382 0.11875863 0.07917242 0.11875863 0.15834484
-0.022620691 0.16965519 0.23186208 -0.084827594 -0.07351725 0.10179311 -0.70124143 -0.050896555
0.49200004 0.27710345 -0.39020693 0.26013795 0.25448278 0.0622069 -0.22055174 0.44675866
-0.07351725 0.1470345 0.22620691 -0.16965519 0.32234484 -0.20924139 0.090482764 -0.09613793
00000000: 24d9 f3fe f9d0 3922 07d3 30c4 cd01 bb10
00000010: def0 0bf1 03f7 f0e6 e927 fd05 1bee 342c
00000020: 09fc e8eb 28dd a3ca b6ca edef da1f efde
00000030: 1fe0 d6e7 cff2 2c0d 1425 d9c2 e716 3823
00000040: 2204 deef 29d8 362b 0237 29a6 13d7 103b
00000050: 220d c0fd ddb2 a800 e1c2 d1b5 ede3 fb10
00000060: 1ac6 23bf 090e 352a 32f1 e3d2 15ed 9f36
00000070: c42b 20e2 e30e d1d7 02ec 10fa 1e27 07d2
00000080: fc0e e818 18d4 c1cf 1916 ecf0 59b2 e5e6
00000090: bdcc 023b eafc 16eb 3138 3df6 c7c6 c8da
000000a0: 12dd 11c1 19ce ddf3 e40f 3cd6 ea30 d82d
000000b0: 053b d720 b803 1eb8 0106 b8e9 1637 35f7
000000c0: d1d1 f001 203d 35f5 05c5 c98b c3e6 fae1
000000d0: d705 0cdd 1f19 e8f2 12aa c0d5 ca24 eff9
000000e0: f0e0 20f8 150e 151c fc1e 29f1 f312 84f7
000000f0: 5731 bb2e 2d0b d94f f31a 28e2 39db 10ef
